…
	Partial charge normalization: m= -0.1401471346616745                     std= 0.4216829240322113

validation dataset with 3479 samples
	Partial charge normalization: m= -0.1401471346616745                     std= 0.4216829240322113

Number of available rotations: 24
===============================================================================================
Layer (type:depth-idx)                        Output Shape              Param #
===============================================================================================
Densenucy                                     --                        --
├─Sequential: 1-1                             [20, 160, 4, 4, 4]        --
│    └─Sequential: 2-1                        [20, 64, 13, 13, 13]      --
│    │    └─Conv3d: 3-1                       [20, 64, 25, 25, 25]      32,896
│    │    └─BatchNorm3d: 3-2                  [20, 64, 25, 25, 25]      128
│    │    └─ReLU: 3-3                         [20, 64, 25, 25, 25]      --
│    │    └─MaxPool3d: 3-4                    [20, 64, 13, 13, 13]      --
│    └─DenseBlock: 2-2                        [20, 256, 13, 13, 13]     --
│    └─Sequential: 2-3                        [20, 128, 7, 7, 7]        --
│    │    └─Conv3d: 3-5                       [20, 128, 13, 13, 13]     32,896
│    │    └─BatchNorm3d: 3-6                  [20, 128, 13, 13, 13]     256
│    │    └─ReLU: 3-7                         [20, 128, 13, 13, 13]     --
│    │    └─AvgPool3d: 3-8                    [20, 128, 7, 7, 7]        --
│    └─DenseBlock: 2-4                        [20, 320, 7, 7, 7]        --
│    └─Sequential: 2-5                        [20, 160, 4, 4, 4]        --
│    │    └─Conv3d: 3-9                       [20, 160, 7, 7, 7]        51,360
│    │    └─BatchNorm3d: 3-10                 [20, 160, 7, 7, 7]        320
│    │    └─ReLU: 3-11                        [20, 160, 7, 7, 7]        --
│    │    └─AvgPool3d: 3-12                   [20, 160, 4, 4, 4]        --
├─Sequential: 1-2                             [20, 1]                   --
│    └─Linear: 2-6                            [20, 1]                   10,241
===============================================================================================
Total params: 1,622,241
Trainable params: 1,622,241
Non-trainable params: 0
Total mult-adds (G): 43.86
===============================================================================================
Input size (MB): 23.75
Forward/backward pass size (MB): 583.61
Params size (MB): 6.49
Estimated Total Size (MB): 613.85
…
