…
	Partial charge normalization: m= -0.1401471346616745                     std= 0.4216829240322113

validation dataset with 3479 samples
	Partial charge normalization: m= -0.1401471346616745                     std= 0.4216829240322113

Number of available rotations: 24
==========================================================================================
Layer (type:depth-idx)                   Output Shape              Param #
==========================================================================================
Pafnucy                                  --                        --
├─Sequential: 1-1                        [20, 256, 4, 4, 4]        --
│    └─Conv3d: 2-1                       [20, 64, 25, 25, 25]      152,064
│    └─ReLU: 2-2                         [20, 64, 25, 25, 25]      --
│    └─MaxPool3d: 2-3                    [20, 64, 13, 13, 13]      --
│    └─Conv3d: 2-4                       [20, 128, 13, 13, 13]     1,024,128
│    └─ReLU: 2-5                         [20, 128, 13, 13, 13]     --
│    └─MaxPool3d: 2-6                    [20, 128, 7, 7, 7]        --
│    └─Conv3d: 2-7                       [20, 256, 7, 7, 7]        4,096,256
│    └─ReLU: 2-8                         [20, 256, 7, 7, 7]        --
│    └─MaxPool3d: 2-9                    [20, 256, 4, 4, 4]        --
├─Sequential: 1-2                        [20, 1]                   --
│    └─Linear: 2-10                      [20, 1000]                16,385,000
│    └─ReLU: 2-11                        [20, 1000]                --
│    └─Dropout: 2-12                     [20, 1000]                --
│    └─Linear: 2-13                      [20, 500]                 500,500
│    └─ReLU: 2-14                        [20, 500]                 --
│    └─Dropout: 2-15                     [20, 500]                 --
│    └─Linear: 2-16                      [20, 200]                 100,200
│    └─ReLU: 2-17                        [20, 200]                 --
│    └─Dropout: 2-18                     [20, 200]                 --
│    └─Linear: 2-19                      [20, 1]                   201
==========================================================================================
Total params: 22,258,349
Trainable params: 22,258,349
Non-trainable params: 0
Total mult-adds (G): 120.96
==========================================================================================
Input size (MB): 23.75
Forward/backward pass size (MB): 219.32
Params size (MB): 89.03
Estimated Total Size (MB): 332.10
…
